Model: "sequential"
_________________________________________________________________
Layer (type)                 Output Shape              Param #   
=================================================================
embedding (Embedding)        (None, 100, 100)          896400    
_________________________________________________________________
conv1d (Conv1D)              (None, 96, 256)           128256    
_________________________________________________________________
global_max_pooling1d (Global (None, 256)               0         
_________________________________________________________________
dense (Dense)                (None, 128)               32896     
_________________________________________________________________
dense_1 (Dense)              (None, 8)                 1032      
=================================================================
Total params: 1,058,584
Trainable params: 1,058,584
Non-trainable params: 0
_________________________________________________________________
