Model: "sequential_1"
_________________________________________________________________
Layer (type)                 Output Shape              Param #   
=================================================================
embedding_1 (Embedding)      (None, 100, 100)          896400    
_________________________________________________________________
conv1d_1 (Conv1D)            (None, 96, 256)           128256    
_________________________________________________________________
global_max_pooling1d_1 (Glob (None, 256)               0         
_________________________________________________________________
dense_2 (Dense)              (None, 128)               32896     
_________________________________________________________________
dense_3 (Dense)              (None, 8)                 1032      
=================================================================
Total params: 1,058,584
Trainable params: 1,058,584
Non-trainable params: 0
_________________________________________________________________
